…
on are applied locally but are the same across the entire input.\n\n\n\n\n## Convolution: Is Parameter Sharing Always Useful?\n\n**Question**: Is parameter sharing always useful?\n\n\n\n\n\n## MLP Parameters\n\n::: {#c6e6214c .cell execution_count=1}\n\n::: {.cell-output .cell-output-stdout}\n```\n==========================================================================================\nLayer (type:depth-idx)                   Output Shape              Param #\n==========================================================================================\nMLP                                      [1, 10]                   --\n├─Flatten: 1-1                           [1, 3072]                 --\n├─Linear: 1-2                            [1, 64]                   196,672\n├─Linear: 1-3                            [1, 32]                   2,080\n├─Linear: 1-4                            [1, 10]                   330\n==========================================================================================\nTotal params: 199,082\nTrainable params: 199,082\nNon-trainable params: 0\nTotal mult-adds (Units.MEGABYTES): 0.20\n==========================================================================================\nInput size (MB): 0.01\nForward/backward pass size (MB): 0.00\nParams size (MB): 0.80\nEstimated Total Size (MB): 0.81\n==========================================================================================\n```\n:::\n:::\n\n\n## CNN Parameters\n\n::: {#6438f7c0 .cell execution_count=2}\n\n::: {.cell-output .cell-output-stdout}\n```\n==========================================================================================\nLayer (type:depth-idx)                   Output Shape              Param #\n==========================================================================================\nCNN                                      [1, 10]                   --\n├─Conv2d: 1-1                            [1, 16, 16, 16]           2,368\n├─Conv2d: 1-2                            [1, 16, 8, 8]             2,320\n├─Flatten: 1-3                           [1, 1024]                 --\n├─Linear: 1-4                            [1, 10]                   10,250\n==========================================================================================\nTotal params: 14,938\nTrainable params: 14,938\nNon-trainable params: 0\nTotal mult-adds (Units.MEGABYTES): 0.76\n==========================================================================================\nInput size (MB): 0.01\nForward/backward pass size (MB): 0.04\nParams size (MB): 0.06\nEstimated Tota
…
