…
    "text": "Convolution: Is Parameter Sharing Always Useful?\nQuestion: Is parameter sharing always useful?"
  },
  {
    "objectID": "slides/cnns/index.html#mlp-parameters",
    "href": "slides/cnns/index.html#mlp-parameters",
    "title": "Convolutional Neural Networks",
    "section": "MLP Parameters",
    "text": "MLP Parameters\n\n\n==========================================================================================\nLayer (type:depth-idx)                   Output Shape              Param #\n==========================================================================================\nMLP                                      [1, 10]                   --\n├─Flatten: 1-1                           [1, 3072]                 --\n├─Linear: 1-2                            [1, 64]                   196,672\n├─Linear: 1-3                            [1, 32]                   2,080\n├─Linear: 1-4                            [1, 10]                   330\n==========================================================================================\nTotal params: 199,082\nTrainable params: 199,082\nNon-trainable params: 0\nTotal mult-adds (Units.MEGABYTES): 0.20\n==========================================================================================\nInput size (MB): 0.01\nForward/backward pass size (MB): 0.00\nParams size (MB): 0.80\nEstimated Total Size (MB): 0.81\n=========================================================================================="
  },
  {
    "objectID": "slides/cnns/index.html#cnn-parameters",
    "href": "slides/cnns/index.html#cnn-parameters",
    "title": "Convolutional Neural Networks",
    "section": "CNN Parameters",
    "text": "CNN Parameters\n\n\n==========================================================================================\nLayer (type:depth-idx)                   Output Shape              Param #\n==========================================================================================\nCNN                                      [1, 10]                   --\n├─Conv2d: 1-1                            [1, 16, 16, 16]           2,368\n├─Conv2d: 1-2                            [1, 16, 8, 8]             2,320\n├─Flatten: 1-3                           [1, 1024]                 --\n├─Linear: 1-4                            [1, 10]                   10,250\n==========================================================================================\nTotal params: 14,938\nTrainable params: 14,938\nNon-trainable params: 0\nTotal mult-adds (Units.MEGABYTES): 0.76\n==========================================================================================\nInput size (MB): 0.01\nForward/backward pass size (MB): 0.04\nParams size (MB): 0.06\nEstimated Total Size (MB): 0.11\n=========================================================================================="
…
